src/image_enhancement_model.pth (torch, 279976 bytes, 6 tensors)

conv1.weight f4 [64, 3, 9, 9]
000000 4d f9 90 bc be 78 82 3c 0e e2 5e 3d e0 bf 46 3c
       -0.017697 0.015926715 0.0544148 0.0121307075
000010 ec 4b 4a 3d d9 62 10 3b bb 54 6d bc 02 5f 7c bd
       0.04938881 0.0022031574 -0.014485533 -0.061614044
000020 57 18 55 bd 89 36 03 3d 05 c3 6b 3d d4 4a 3c bd
       -0.052025165 0.03203443 0.057559032 -0.0459698
000030 bb db 20 bd 64 51 96 bc 55 a6 37 bd d5 a0 60 bd
       -0.03927205 -0.018349357 -0.04483636 -0.05484088
000040 1e 52 0a bd 30 bb f9 3c 6d 67 12 bd 7b cb 56 bd
       -0.03376972 0.030484766 -0.035743166 -0.052440148
000050 85 c9 1c 3d fb ea 6d bd b4 dc 19 3b 60 b4 61 bd
       0.03827812 -0.058085423 0.0023477497 -0.05510366
000060 02 50 61 ba 9a 79 9d bc b7 2a 32 bd c9 d3 b6 3c
       -0.0008594991 -0.019223023 -0.043497767 0.022317784
000070 d8 e9 6e bc e5 c3 b5 3c 1f ae e4 3b 9b 5b 9e 3c
       -0.01458212 0.022188136 0.0069787647 0.01933079
000080 a8 03 ef bb 55 75 68 3d 80 7e 77 bc 83 9d 00 bd
       -0.007294137 0.05675252 -0.015105844 -0.031400215
000090 46 92 9b 3c ba 08 7f 3d 9f 43 ee bc 38 49 ab bc
       0.018990647 0.06226418 -0.029084979 -0.020908937
0000a0 0d 23 ac 3c 23 ea 59 3d 13 37 4d 3c 19 f4 11 3d
       0.021012807 0.053201806 0.012525338 0.03563318
0000b0 60 cb 09 bd ce 4e 81 3b 68 0f a5 3c 5a 2d 33 bc
       -0.03364122 0.003946162 0.020148948 -0.010936106
0000c0 34 79 c2 bc 4f 7c 4d bd 89 82 11 bd d3 29 d3 bc
       -0.023739435 -0.050167378 -0.03552488 -0.02577678
0000d0 8c bf 73 3d 9f ed 71 3d d1 b0 4b bd f8 60 13 3c
       0.059508845 0.059064504 -0.049729172 0.008995287
0000e0 42 64 51 bd 9f 9c c5 bc 05 e8 0e 3d 2b 2b 37 3b
       -0.051121004 -0.024122534 0.03488924 0.0027949314
0000f0 52 99 69 3d 33 69 3e 3d f0 14 52 bd e4 6c 83 3b
       0.057030983 0.046487045 -0.0512895 0.0040107835
000100 bb 27 bc 3b 80 13 67 3d d1 f2 95 bb 2f 07 35 bd
       0.005742041 0.05641508 -0.004576065 -0.044196304
000110 bc e8 83 bd 6f 3a 68 3d 27 e5 d2 3b 84 8e 7f bd
       -0.06440875 0.05669635 0.0064360085 -0.062391773
000120 6a ca ce 3c 9b 53 58 3d a7 52 4b 3d f5 56 39 3c
       0.025243003 0.052814107 0.04963937 0.011312236
000130 05 a5 15 bd 20 e8 57 bd 5e d2 81 bc c4 42 16 bd
       -0.036534328 -0.052711606 -0.015847381 -0.036684766
000140 ba 77 01 3d ab bc 0a 3b f3 1b 02 3b 25 e2 29 3c
       0.03160832 0.0021169584 0.0019853085 0.010368858
000150 a5 d5 64 bd f3 25 c6 bc 4a 79 4e bd 62 10 2d bd
       -0.05586781 -0.024188017 -0.05040864 -0.042251952
000160 88 d8 5c bd 95 d5 41 3d 82 da 16 bd 5c 01 57 bc
       -0.053917438 0.04732283 -0.03682948 -0.013122883
000170 d2 76 58 3d 0e d2 3b bd b5 13 47 3d 8b ae 84 3c
       0.05284769 -0.04585462 0.04860278 0.01619651
000180 3a ee 51 3b 99 86 a7 bc 53 cf 36 bd 05 05 05 3d
       0.0032032863 -0.020449923 -0.044631314 0.03247549
000190 0d 8c 88 3b 41 25 51 bd 6a 96 70 3d 3e af c8 3c
       0.004167086 -0.05106092 0.058737196 0.024497624
0001a0 6c 10 bc bc 17 8c e3 3c f9 02 24 bd 55 9c 5f bc
       -0.02295705 0.027776761 -0.040041897 -0.013648112
0001b0 e0 27 1e 3d ee 7f b5 bb 7a b3 11 3d 0a 52 a0 3c
       0.038612247 -0.005538932 0.035571553 0.01957037
0001c0 62 c9 2c bd 4e 45 50 bc a6 c0 e6 3c 55 87 73 3d
       -0.04218424 -0.012711836 0.028168034 0.059455235
0001d0 42 93 e0 bc 5d 12 b3 ba 24 68 97 3c b1 d5 3c bc
       -0.027413968 -0.0013662089 0.018482275 -0.011525557
0001e0 65 58 66 bd 01 aa df 3c 6d 8e bf 3c 1a fe 6c 3d
       -0.056236643 0.027302744 0.023383344 0.057859518
0001f0 94 d1 26 3d ed 36 1e bd cf 5a 14 3d 0e 75 5e 3c
       0.040727213 -0.0386266 0.036219414 0.013577713
000200 58 b3 10 3d e0 bf fd 3c 7a 59 d2 bc 97 7b a0 3c
       0.035327286 0.030975282 -0.025677431 0.019590182
000210 a1 d9 51 3d 2d 6b 01 3d 3b 52 81 3d 02 77 e1 39
       0.051232938 0.03159635 0.06314512 0.00043004012
000220 ec 4f ab bb 59 c7 04 3d 99 e0 e7 3c dc 16 52 bd
       -0.0052280333 0.032416675 0.028305339 -0.05129133
000230 5f 94 5d 3d 9a 9b 2a 3d 8f 1d f1 bc 20 3d e6 bc
       0.054096576 0.0416523 -0.02943304 -0.028105319
000240 82 cf c8 3c 10 b8 24 3d cc 1a 4d bc 8b 34 01 3d
       0.02451301 0.0402146 -0.012518596 0.03154425
000250 96 3e d1 bb 6e 0c 4f 3d b9 e5 75 bd 3a 4e 07 3d
       -0.0063856347 0.050548963 -0.060033534 0.033033587
000260 ca 7e fb bc 74 3c 0f 3c da d5 62 3d 75 43 25 bb
       -0.030700106 0.0087424405 0.055379726 -0.002521721
000270 a3 81 57 bd ec 04 02 bd a8 2a 00 bd 55 35 a5 bc
       -0.052613866 -0.031742975 -0.03129068 -0.020167032
000280 fe 2f d1 3c 01 3b 1e bd c5 6b 11 bd b1 5a 62 3d
       0.02553558 -0.03863049 -0.035503168 0.05526227
000290 e7 80 24 3d fe 2c 7d 3d c7 7b 60 bc 3a 1e d2 3b
       0.040161993 0.061810486 -0.013701386 0.0064122947
0002a0 4e 1d 45 ba 08 dd 06 bd c4 bc 2c 3c bd 0a 2a 3d
       -0.00075193204 -0.032925636 0.010543052 0.041514147
0002b0 74 0a 78 3d 5c f0 11 3d 84 45 db bb c8 12 56 3c
       0.060556844 0.035629615 -0.0066916365 0.013066001
0002c0 cf bd 01 3d 48 2e f8 bb 8e 16 47 bd ad 1a 68 3d
       0.031675156 -0.0075738765 -0.048605494 0.056666065
0002d0 ca 0e 76 bd 44 b9 52 3d 39 18 f7 3c ba ef 45 3c
       -0.060072698 0.051446214 0.030162917 0.012081081
0002e0 b9 9e a9 3c 8f ae 8f 3c 3b 48 ef 3c 4a 9c 0a 3d
       0.020705568 0.01753929 0.029209247 0.033840455
0002f0 7e 5d fe bc af 86 05 3d 79 ab 0d 3d 51 1d 3d 3d
       -0.03105044 0.032599147 0.034587357 0.046170536
000300 2a 85 a4 3a d5 17 54 bd 21 05 55 3c c4 cf c6 3c
       0.0012551893 -0.05178054 0.013001711 0.024268992
000310 dc fb e2 3c 84 77 54 bd e1 4b 09 3d 90 3d ea bb
       0.027707987 -0.05187179 0.03351963 -0.007148452
000320 49 3f 77 bc cc 17 2c bd ed 1a 11 3b 06 da 5e bd
       -0.015090772 -0.042014882 0.0022141293 -0.054407142
000330 7c 2f 29 bd 03 59 44 3c eb b6 fb b9 1d e0 47 3d
       -0.04130505 0.011984113 -0.00048010735 0.048797715
000340 56 87 41 bd 24 64 41 bc ab 49 03 3a f0 c6 74 3c
       -0.047248207 -0.011803661 0.0005008231 0.0149400085
000350 bb 96 bc bc 0e 4e 60 bd 2c b3 6a 3d 84 28 7a bd
       -0.023021093 -0.05476194 0.057299778 -0.061073795
000360 8a 25 99 3c 3e ae dc bc 20 2c 81 3d e5 cb 12 bd
       0.018694658 -0.026938554 0.06307244 -0.03583898
000370 99 b5 d9 3c 24 18 4c bd aa 59 1f 3c bf e2 12 3c
       0.02657585 -0.04982771 0.009725967 0.008965193
000380 01 2f 1f 3d 8c d1 4f 3d ad 6c de bb c7 1d 81 bc
       0.038863186 0.05073695 -0.0067878575 -0.01576127
000390 e3 39 94 bb 64 c1 43 bc dc c1 9e bc fa f7 27 bd
       -0.004523502 -0.011947963 -0.019379549 -0.041007973
0003a0 15 85 79 3d fa 36 37 3d 4b a0 2a 3b 00 a2 a1 bc
       0.060917933 0.044730164 0.0026035483 -0.019730568
0003b0 6a 4c c4 bc 8c 2a 44 bd 6c 30 25 bd ef 51 5e bd
       -0.023962218 -0.04789214 -0.04032938 -0.054277357
0003c0 c2 3d 31 bd 03 7e 1c 3d 3a ee 25 bd e4 26 3c 3a
       -0.043271787 0.03820611 -0.040510394 0.0007177426
0003d0 2a fb 37 3d bb ab 5f bd 47 a3 30 3d aa 52 01 3d
       0.044917263 -0.054607134 0.043124463 0.031572975
0003e0 9f 3f 8e 3c bd a6 20 bd a2 99 72 bd 60 2e a1 bd
       0.017364321 -0.039221514 -0.059228547 -0.078701735
0003f0 41 38 67 bd 7a 1d e2 bc 19 ef 27 bd 30 cb 55 bc
       -0.056450132 -0.027601946 -0.040999506 -0.013048932

conv1.bias f4 [64]
000000 8e 0e 59 3d 96 de 91 3c 8c 3d cf bc 2d 99 57 bd
       0.052992396 0.017806333 -0.025297903 -0.052636314
000010 4c ea e2 3c 43 6f 9d bc df 79 35 bb 44 b5 0b 3d
       0.027699612 -0.019218093 -0.002769105 0.034108415
000020 7d 9e c8 3c c0 b8 8e b9 70 11 4c bd b5 47 a3 bc
       0.024489636 -0.00027222 -0.049821317 -0.019931654
000030 3b ff 4e 3d 56 19 d8 3c 2e 2e 0c 3e d8 f6 73 3d
       0.050536375 0.026379269 0.13689491 0.05956158
000040 57 dc 6f 3d 3d e1 1a bd e3 ac 19 3e 4b da 47 bd
       0.05855974 -0.03781246 0.15007357 -0.048792165
000050 a7 cd 57 3d 00 6b 8b 3d b8 14 3d bd 15 5d 44 3d
       0.05268636 0.06807518 -0.046162337 0.047940332
000060 13 69 67 bd 9b f3 80 bc dd fc ea bc 7c a2 73 3c
       -0.05649669 -0.01574116 -0.028685028 0.014870282
000070 76 6d d7 bc f9 5f 31 3d 9e 43 31 bd 9a 3a 30 bd
       -0.026297312 0.043304417 -0.043277375 -0.043024637
000080 50 13 ef bc 47 07 2c 3d d5 47 5e bd 8c dd 9c 3d
       -0.029184014 0.041999128 -0.054267723 0.07659444
000090 b0 ae c8 3c c3 0f 92 bc 96 7e 5f b7 f3 59 6a bd
       0.02449736 -0.017829781 -1.3321309e-05 -0.05721469
0000a0 ee 91 94 bc 39 82 eb bb 0d f7 87 bb 9e df f6 3c
       -0.018135991 -0.0071871546 -0.004149324 0.030135926
0000b0 73 2c 84 3d c6 17 9f 3e c8 dd d1 bc 9c a1 10 3d
       0.064537905 0.31072825 -0.025618449 0.035310373
0000c0 43 b5 be bb 10 77 3a 3d c0 70 2d 3d 84 64 da bb
       -0.005819948 0.045523703 0.042343855 -0.0066648144
0000d0 0a bd 73 bd 52 33 53 3d 8f f4 41 3d 30 5f 1f 3d
       -0.059506454 0.051562615 0.04735237 0.038909137
0000e0 79 27 55 bc 21 6b d7 3b 13 49 1b bd 08 41 8f bd
       -0.013009899 0.00657405 -0.037911486 -0.069948256
0000f0 56 0f 46 3c 81 84 8c 3d 21 3f 1a 3e 44 aa 31 bd
       0.012088617 0.068612106 0.15063144 -0.04337527

conv2.weight f4 [32, 64, 5, 5]
000000 85 fd 81 bc 0e 37 b9 bc 96 f2 60 bc ee 8e 0d 3c
       -0.015867958 -0.02260926 -0.013729712 0.008640034
000010 0f 5f 86 bc ce d4 04 b9 cc 51 62 3c bd 46 10 3b
       -0.01640275 -0.00012667777 0.013813447 0.002201482
000020 46 a5 f5 bc 9c cf 3b 3c 74 e0 50 bc 92 67 f6 bc
       -0.029986035 0.011463072 -0.012748826 -0.030078683
000030 2b 92 c2 bb e0 be fa 3b 87 f7 c3 3b 8b 7f 7d 3c
       -0.0059378347 0.0076521486 0.0059804353 0.015472303
000040 05 25 1e 3c 6d 06 21 3c 1d d5 85 3c 53 aa e8 bc
       0.009652381 0.009828192 0.016336972 -0.02840153
000050 e9 b3 82 3c c3 47 e4 bb e0 9b 19 3c 52 eb 2c bc
       0.015954928 -0.0069665625 0.009375542 -0.010554152
000060 7c af 95 3c 96 13 cd bc 29 2f f7 bc 3b 6e 06 bc
       0.018272154 -0.025033753 -0.030173855 -0.008204992
000070 95 b9 7d bb 33 bd 02 3c 73 08 1d bc 99 b9 a4 bb
       -0.0038715352 0.007979679 -0.009584534 -0.005027008
000080 83 83 ca 3b ac 42 33 bc 1e 00 7b 3b 39 8a e7 bc
       0.006180228 -0.010941189 0.003829963 -0.028264152
000090 0d c2 c5 3a a5 77 c1 bc 2a f5 93 bc e9 47 89 3c
       0.0015087739 -0.023616621 -0.01806124 0.016757922
0000a0 0c f8 ee 3b cc f2 e0 bc e6 c3 9b bc 8f 5a 02 bc
       0.007292753 -0.027459525 -0.01901431 -0.007956161
0000b0 e6 af 86 bc e6 a1 fa ba 65 43 85 3c 53 a6 f5 3b
       -0.016441297 -0.0019121736 0.016267488 0.007496634
0000c0 de 85 a1 bc 33 b2 5c bc df fd 03 3b 86 39 78 3c
       -0.019717153 -0.01347022 0.0020140333 0.015150433
0000d0 6f 60 f5 bc 0b bb 91 bc 0d 68 47 3c 2f 99 4e bc
       -0.02995321 -0.017789384 0.012170804 -0.012609764
0000e0 5a bf 9b bb 4b b6 e7 bc e6 40 df bb c7 24 b5 3b
       -0.0047530355 -0.028285166 -0.0068131564 0.005528066
0000f0 fd 3d 8d bb e0 7d 41 bc 13 ef 6c bc 83 ad 6b bb
       -0.004310368 -0.011809796 -0.014461297 -0.0035961575
000100 57 6b 33 bc f8 e0 0d bb 21 93 aa ba 22 ab 42 bc
       -0.010950885 -0.0021648984 -0.0013013819 -0.011881622
000110 f8 11 a4 bc 9c f7 f7 bc 99 60 55 3c 4a 26 0f 3c
       -0.0200281 -0.030269437 0.013023519 0.008737156
000120 d2 55 5c 3c 24 f1 c4 bc 5d da 70 3b e2 22 c4 3a
       0.0134481955 -0.024040766 0.0036751248 0.0014964009
000130 be 49 5d bc 09 5a ac bc 3e 91 11 bb 5d 89 68 bb
       -0.013506351 -0.021039026 -0.0022211815 -0.0035482266
000140 a7 d1 7e bc da d2 cb bc b7 3a c9 bb 9f 2d 5c 3c
       -0.015552915 -0.024880815 -0.0061410326 0.013438611
000150 e3 37 23 bc 1e 78 6a 3c 69 64 bd 3a c7 47 51 3c
       -0.009962055 0.014310865 0.001444948 0.012773461
000160 ac 9a c3 3b 9e 78 2b 3a 5e f3 f4 bb ee 24 84 bb
       0.005969366 0.00065411057 -0.0074753007 -0.0040327227
000170 fb 92 96 bb 40 d7 cc 3b 38 01 2d 3c a8 67 d4 bc
       -0.004595158 0.0062512457 0.010559373 -0.025928333
000180 96 05 c6 bc bb 36 31 3c a1 3c 69 bc 6b 30 36 3b
       -0.024172585 0.010816271 -0.014235646 0.0027799855
000190 d8 5f 4d 3c 0e 52 c0 bc b3 e5 ad bb ce 29 40 3c
       0.012535058 -0.023476627 -0.0053069233 0.011728717
0001a0 a9 67 51 bc 55 08 07 bc e8 94 36 3c ed 8e 19 3c
       -0.012781062 -0.008241733 0.0111439 0.009372455
0001b0 10 20 f6 3b 5a f0 7e bb 34 c4 8a 3c 5a ab 85 3c
       0.0075111464 -0.0038900585 0.01693926 0.016317058
0001c0 93 e8 15 bc 99 57 9e 3b d0 38 b9 bc 60 3b 20 3c
       -0.009149688 0.00483222 -0.022610098 0.009779781
0001d0 cb be f1 3b 24 4c 43 3b 83 44 24 bc 30 38 90 3c
       0.0073774806 0.0029800022 -0.0100261 0.017604917
0001e0 27 50 77 ba 9f 9d 32 bb fd 91 28 3c b0 d5 e8 bc
       -0.0009434246 -0.0027254594 0.010288713 -0.028422207
0001f0 e6 c5 ab bc 5a 6f 8c bc 74 60 ef bc 90 90 92 bb
       -0.020968389 -0.01714294 -0.029220797 -0.0044727996
000200 b0 fb 21 3c d8 12 cd bc 19 3d 4f bb cb 06 ae b8
       0.009886667 -0.0250334 -0.003162211 -8.298232e-05
000210 5e 63 16 bc 44 50 a7 bb 9d 77 8f 3c 0c 10 1c 3b
       -0.009178964 -0.005106004 0.01751309 0.0023813276
000220 32 5d b5 bb 16 6b f9 bc 90 97 a4 3b 99 36 37 bc
       -0.0055347914 -0.03044657 0.0050229505 -0.011182451
000230 21 bf a0 bc 34 0c 88 bb a5 3d 91 ba 71 3e 63 ba
       -0.019622387 -0.0041518454 -0.0011080994 -0.0008668667
000240 b9 67 b2 bc 4a 79 b6 bc 30 2c c7 bb b5 11 77 3c
       -0.021777974 -0.022274632 -0.0060782656 0.015079905
000250 5a c1 d4 bc a1 1a 4f bc 17 b1 28 3c bf 31 d0 bc
       -0.025971103 -0.012640626 0.010296128 -0.025414346
000260 04 84 1d bb 04 21 fa 36 c0 6f 8a bc a9 c6 00 3c
       -0.0024034986 7.454424e-06 -0.01689899 0.007859864
000270 27 59 83 bc 7e f5 ed bc 05 3a 24 3c b7 cc 4f bb
       -0.016033722 -0.029047724 0.010023599 -0.0031707713
000280 4c 75 f0 bc 8a 08 2b bc dc 97 9c bc fa d3 41 3c
       -0.029352807 -0.010439048 -0.019115381 0.011830324
000290 45 c5 27 3c ff 1f 97 3b 4a e5 7b bc fe dc 32 3c
       0.010239904 0.0046119685 -0.015374491 0.010916946
0002a0 1a 57 7b 3c 2e 06 c8 bc a6 89 74 3b 67 75 c1 bc
       0.015340591 -0.02441701 0.003731349 -0.023615552
0002b0 1f a7 40 bc 24 ca c4 bc 41 99 32 bb c3 fe 78 3c
       -0.011758595 -0.02402217 -0.002725199 0.015197459
0002c0 26 2a b8 bc 6e 6d 4a bc c8 cd a8 bc 90 46 e1 bc
       -0.022481035 -0.012355192 -0.020605937 -0.027499467
0002d0 13 89 28 3c de 96 fa 3b db 75 9e bb 09 5b e0 3b
       0.010286587 0.0076473793 -0.004835827 0.0068467897
0002e0 dc db 8e bb 42 3b 65 3c 67 7c f6 bb af d7 dd 3b
       -0.0043597054 0.013991179 -0.007522154 0.0067700963
0002f0 fe e3 36 bc 91 50 8d bc 54 ca 8e 3c 20 ba 83 3c
       -0.011162756 -0.017250331 0.017430462 0.016079962
000300 be 9b f7 bb 14 6e 22 bc 16 8f 7a 39 80 95 9b bc
       -0.0075564077 -0.00991394 0.00023895162 -0.018992186
000310 85 53 ae bc 48 4f 6f 3c 43 8d 59 3c 99 3e f3 bc
       -0.02128006 0.0146063045 0.013278308 -0.029692935
000320 6f 8e 87 bc d0 65 36 bc 57 d6 61 bc ef 22 c7 bc
       -0.01654741 -0.011132672 -0.013784013 -0.02430865
000330 f7 19 8a bc 1a 09 34 bc 22 b6 82 3b 8d 76 d4 bb
       -0.016858084 -0.010988498 0.003988997 -0.006483859
000340 f8 2c c1 bc 60 6f 5e 3c 20 cd e9 bb df 68 8f bc
       -0.023581013 0.013576359 -0.0071350485 -0.017506061
000350 8d 5d c6 3b 20 d4 4d 3a 81 84 b7 bc 5b bf 4d bc
       0.0060536326 0.00078517385 -0.02240205 -0.01255783
000360 9c ee 8c bc 5c 31 9a bc 34 37 c0 bc f8 f2 36 bc
       -0.017203622 -0.018822365 -0.023463823 -0.011166327
000370 a5 7b a6 bc 7a 92 0e 3b df 8b e9 bc f7 ac 75 bc
       -0.02032263 0.0021754787 -0.028509079 -0.014994851
000380 86 e7 5c 3c 82 ee 1c 3c 4b 20 4e bc 32 4c 5a bb
       0.013482934 0.009578349 -0.012580941 -0.0033309576
000390 dd 9d 81 3c fc 8f c6 3b f2 bf e4 3b d2 89 0b bc
       0.015822345 0.0060596447 0.0069808895 -0.008516746
0003a0 19 3b 50 3c 35 8a 78 3c 1f 02 22 3b 22 46 55 bc
       0.0127094025 0.01516967 0.0024720503 -0.013017209
0003b0 bc 3d 4f bc 1d 1d 27 bc 51 b9 dd bc 17 f5 6f bc
       -0.012648996 -0.010199812 -0.027065905 -0.014645836
0003c0 b9 14 bd bc e6 dd 95 bc cb b6 96 3c 8f 6e 02 3b
       -0.02308117 -0.018294286 0.01839771 0.0019902324
0003d0 b7 13 23 3c 20 32 02 bb 5f d4 8c 3c 1a c1 41 3b
       0.009953431 -0.0019866303 0.01719111 0.002956456
0003e0 68 2a c0 ba 7c 6b 31 bc d2 fc 2c ba 6c 24 52 bc
       -0.0014661076 -0.010828849 -0.00065989525 -0.012826066
0003f0 f8 ab e5 bc b5 4a 9c bb 42 7d fd bc 27 a1 04 3c
       -0.028036103 -0.004769648 -0.030943517 0.008095062

conv2.bias f4 [32]
000000 a6 9a 7d bb f8 98 45 bc ed 45 25 bb ed 24 14 bc
       -0.0038696914 -0.012060396 -0.002521868 -0.009042007
000010 7d ff 1a bc 38 a8 2d bb bd 77 87 bc cb 48 a5 bc
       -0.009460327 -0.0026497971 -0.016536588 -0.020176312
000020 3a 75 67 bc 8f c9 8c bc d4 e1 6b bc b3 87 0e 3d
       -0.01412707 -0.017185954 -0.014397103 0.03479738
000030 90 76 a9 3c 41 9c 60 3c 1b 12 51 3c a6 66 78 bc
       0.020686418 0.013709129 0.012760664 -0.015161192
000040 ae ca 97 bc e6 8e 51 bc 5e ac 40 bc a1 cd b3 3c
       -0.018529262 -0.012790417 -0.011759846 0.021948637
000050 98 39 ec b7 36 cf 75 3b e2 a7 25 3c 6b 50 33 3c
       -2.8160212e-05 0.003750754 0.010110827 0.010944466
000060 ac ca f3 bb 98 b1 77 bc b9 9a f3 bb 4c 0f c6 bc
       -0.007439932 -0.015118025 -0.007434216 -0.024177216
000070 a5 14 d4 bb e0 48 e5 bb 1d 0d b5 bc c0 37 81 bc
       -0.0064721876 -0.006997213 -0.02210098 -0.015773654

conv3.weight f4 [3, 32, 5, 5]
000000 1b c4 8f bc 23 4f 96 3c 4d 09 45 bc 52 32 98 3c
       -0.017549565 0.018348282 -0.012026143 0.018578682
000010 ae d2 ff 3c a9 4f 0f 3d ee 17 1c 3d 15 b6 53 3c
       0.03122839 0.03498808 0.03810876 0.01292183
000020 27 a7 27 3c 46 fd 9d bc 45 55 25 3d 33 45 fd 3c
       0.010232723 -0.01928581 0.040364522 0.030916786
000030 f9 51 f5 bb 39 83 d9 3b 0f 32 9e 3b d5 50 bc bb
       -0.0074865785 0.0066379574 0.004827745 -0.0057469406
000040 3c 2d af 3c 17 f0 e3 3c ea b1 60 3c ba 5a 23 3c
       0.021383874 0.027824445 0.013714293 0.009970361
000050 18 2b cd bc ce a2 ec ba cd 40 ea 3b 65 4f 15 3d
       -0.025044963 -0.0018053891 0.007148838 0.03645267
000060 28 00 a5 bc 45 41 0e 3d 47 8d 10 3d 7f 9d 3d bc
       -0.020141676 0.034730215 0.035290983 -0.0115731945
000070 90 51 a2 3c 6a 43 96 3c 5f 44 a2 bc 95 a2 b6 ba
       0.019814283 0.018342692 -0.019807993 -0.0013933951
000080 f6 17 e4 3c c1 78 d4 3c a3 69 2e 3b e3 98 02 bd
       0.027843457 0.025936486 0.0026613257 -0.031884085
000090 6b dd 17 bc f2 62 7b 3c 9e fc e2 bc 07 ff c8 ba
       -0.009269099 0.015343415 -0.027708348 -0.0015334793
0000a0 d7 35 43 bc 67 c8 93 3c 7e 2b fe 3c 0c fc e8 3b
       -0.011914692 0.018039895 0.031026598 0.0071101245
0000b0 14 fb af bc cb 73 00 3b 93 c0 09 3c d8 93 a4 bc
       -0.021482028 0.0019600268 0.00840773 -0.020090029
0000c0 f0 ae 0e bc 91 27 4a bc 67 07 68 3c d1 99 73 bc
       -0.008708701 -0.012338535 0.014161921 -0.014868216
0000d0 47 82 d6 3c df ad b8 3c 22 b4 71 3c 6f 69 ae 3c
       0.026185168 0.022543846 0.01475242 0.021290509
0000e0 0a 46 bc 3b 1d e9 1a bb fa d8 e9 bb 93 9a 28 3d
       0.005745654 -0.0023637481 -0.0071364613 0.04116304
0000f0 34 66 53 bc 89 0b a2 bc 23 1a de bc 8d d9 2a 3c
       -0.012902785 -0.019780891 -0.027112072 0.010427845
000100 dd 57 fc 3b 2c 2d 39 3c b8 f7 90 3b f9 3a 67 bc
       0.007700904 0.011302274 0.0044240616 -0.014113181
000110 d4 ab cb bc 5d d4 a7 bc 4b 15 94 3c 0d 33 31 bc
       -0.024862207 -0.020487005 0.01807656 -0.010815394
000120 1e dd 5a ba 9e ec 80 bc da 09 08 3d d6 6d 4e 3c
       -0.0008348989 -0.015737828 0.03321252 0.012599429
000130 cf 83 6c bc 1b 8f 17 3c 50 0a 1b bc 1e a4 bf bb
       -0.0144357225 0.009250428 -0.009462908 -0.0058484217
000140 f9 9c 74 3c dd 60 23 3c 9a 2c 51 bc de 80 dd bc
       0.014930003 0.0099718245 -0.0127669815 -0.027038988
000150 14 0e b5 ba 33 3c 37 3c 72 ec e5 3c c5 c1 0a 3d
       -0.00138134 0.011183786 0.028066847 0.0338762
000160 a6 ba 1e bb e9 30 86 bc 00 5a c1 3c e0 a1 79 3c
       -0.0024220138 -0.016380744 0.023602486 0.015236348
000170 ac d4 f4 3c 8a 94 5e bc bf ba 8e bb dd 8c e6 3c
       0.029886566 -0.013585219 -0.004355758 0.02814334
000180 c1 aa 93 ba 19 db 09 3a c2 9c 8f bb 3d 81 88 3c
       -0.0011266099 0.00052587833 -0.0043827007 0.016663188
000190 21 d9 7d 3c 73 52 ac bc e3 a5 51 bc 08 95 89 bc
       0.015493662 -0.021035409 -0.012795898 -0.016794696
0001a0 76 af 01 3d 27 a2 7d bc 7d 01 bc bc 48 5c 2b 3c
       0.031661473 -0.015480555 -0.022949928 0.010459013
0001b0 9d 21 6d 3c 41 5d b9 3c e0 d6 65 bc de 20 d6 bc
       0.014473346 0.022627475 -0.014028281 -0.02613872
0001c0 3d 2a e8 bc 86 24 e0 bc 94 10 11 3c fb 8d 23 3d
       -0.028340453 -0.027361166 0.00885405 0.039930325
0001d0 9f 32 c2 3c 9a 97 db bb 33 ab d6 3a b7 74 27 3c
       0.023705779 -0.006701422 0.0016377926 0.010220698
0001e0 a0 fe d6 3c 38 aa f6 bb c4 86 ea bb 10 79 6b 3c
       0.026244462 -0.007527616 -0.0071571786 0.014372125
0001f0 ae 03 1b 3c 26 c6 00 3d 64 30 d1 bc 60 b7 1d 3d
       0.0094613265 0.03143897 -0.02553577 0.03850496
000200 01 7f e4 bc 17 1a 34 3c ca e6 25 3d 2d 4c 85 3c
       -0.027892591 0.010992548 0.0405033 0.016271675
000210 86 9d b7 bb 73 18 19 bc d9 9c ce bc aa f5 6b bc
       -0.005603495 -0.009344208 -0.025221275 -0.014401833
000220 13 a4 24 3d f3 54 f8 ba a2 02 bc bc b4 ad 6e 3c
       0.040195536 -0.0018946215 -0.022950474 0.014567781
000230 57 2a ab 3b 80 23 d2 bc 48 ab a6 3c 91 19 aa bc
       0.005223553 -0.025651693 0.020345345 -0.020764144
000240 4c d4 cf 3c ec 12 04 3d 03 4c 72 bb 9c 2d 09 3c
       0.025369786 0.032244608 -0.0036971576 0.0083726905
000250 4f 2a 07 3d 81 0a 64 bb 89 1c cd bc ad c7 b6 bc
       0.032999333 -0.00347963 -0.02503802 -0.02231201
000260 df ff 1d b8 25 13 e7 bc 7c 18 84 bc 58 ee 38 3c
       -3.7670015e-05 -0.028207371 -0.016124956 0.011287294
000270 c9 22 40 bc d0 67 5c 3c a6 06 50 3c 1b 02 50 bc
       -0.011727043 0.013452485 0.012696898 -0.0126958145
000280 a5 fa e1 3c 34 8a ca bc 00 5b 82 3b e2 d9 a6 bb
       0.027585337 -0.024724104 0.003978133 -0.0050918916
000290 ee d4 33 3c 7b 27 ef bc 2b 4f 8d 3c 2a 4b de bc
       0.010976059 -0.02919363 0.017249664 -0.02713545
0002a0 c0 30 94 3c 6d 8f 36 3a 06 c8 32 3d e5 28 81 bc
       0.018089652 0.0006964121 0.04364779 -0.01576657
0002b0 e1 a3 ee 3c d2 26 41 3b 2f ac a6 3c 03 28 94 bc
       0.029130878 0.0029472602 0.020345775 -0.018085485
0002c0 1c 0c b5 bb 22 ea 39 3c c0 60 b3 3c 5f 56 db 3c
       -0.005525125 0.0113473255 0.02189672 0.026774583
0002d0 02 c8 fe bc 0a 1a 00 bd 82 e5 73 bc d9 a7 e2 3c
       -0.03110123 -0.031274833 -0.014886262 0.027667927
0002e0 30 88 fd 3b 88 fd c7 bb 93 6b 17 bd ee 66 82 3b
       0.007737182 -0.0061032213 -0.036967825 0.0039795553
0002f0 57 58 b8 3a a7 78 1b bd ea 1c 88 bc 05 38 4d ba
       0.0014064413 -0.03795686 -0.01661535 -0.0007828477
000300 97 b8 5d bc 7e d0 cc 3b aa 2b 16 3d ea 7d 3e 3c
       -0.013532779 0.00625044 0.036662735 0.0116267
000310 07 0c ed 3b 0f 60 49 3c ad e8 c9 3c dd 71 17 3b
       0.0072341 0.012290969 0.024647081 0.002310864
000320 0f 3b 01 3d c9 a5 e2 3c c6 1c 08 bc a7 c8 ec 3b
       0.031550463 0.027666943 -0.008307641 0.007226068
000330 b6 45 d4 3b 71 15 cb bc fc 54 d6 3c 2d da 14 3c
       0.0064780368 -0.024790497 0.02616357 0.00908522
000340 fa bb e6 3c c5 7b c1 bc e5 11 74 3c af 8f bc 3a
       0.028165806 -0.023618588 0.0148968445 0.0014386083
000350 35 13 22 3d 3a 84 c7 3c 4d 68 08 3d 06 17 9b 3a
       0.0395691 0.024355043 0.033302594 0.0011832423
000360 69 a4 e6 3c 3a d6 31 bc 7b fd e5 bc b7 c4 0e b9
       0.028154569 -0.010854298 -0.02807497 -0.00013615457
000370 15 5c 9f bc 63 9e 1f bc e3 0d 01 3d f8 d0 9f bb
       -0.019453088 -0.009742352 0.031507384 -0.004877206
000380 e6 0a 1c 3d 04 4a cc bc bc bf aa 3b 2a dc 4f bb
       0.03809633 -0.024937637 0.005210845 -0.0031716921
000390 56 54 7d 3c 6a ca b9 bc ac 05 c4 bc 01 e9 c0 bc
       0.015462002 -0.022679526 -0.023928486 -0.023548605
0003a0 45 e4 2f 3b a5 67 57 3c 18 bc 8c bc 66 f7 e5 bc
       0.002683894 0.013147269 -0.017179534 -0.02807207
0003b0 ff 13 7e 3c cc b2 5f 3c 25 6a 80 bc 56 07 38 bb
       0.015507697 0.013653468 -0.015675614 -0.0028080544
0003c0 73 4e e3 bb 11 0f e7 3c 5b ec 55 bc e3 69 23 bb
       -0.006936842 0.028205426 -0.01305684 -0.002493494
0003d0 0e 78 ca bb 24 21 2e 3d f8 23 97 bc 78 53 18 3d
       -0.0061788624 0.042512074 -0.018449768 0.037188977
0003e0 06 24 bf bb 43 4b 81 3b a7 31 c6 3c 0e a4 b8 3c
       -0.0058331518 0.0039457395 0.024193598 0.022539165
0003f0 5b 3e ac 3c 07 1f 19 3d c9 7d af bc 4c fc 9b 3c
       0.021025827 0.037383106 -0.021422284 0.019041203

conv3.bias f4 [3]
000000 da 79 36 3a 99 f3 f4 3a a3 62 fb 3a
       0.00069609063 0.001868832 0.0019179176
